…
WARNING:tensorflow:From /home/chirag1goel_gmail_com/PointPillars/network.py:104: The name tf.keras.initializers.TruncatedNormal is deprecated. Please use tf.compat.v1.keras.initializers.TruncatedNormal instead.

(1, 12000, 1, 64)
64
12000
Model: "model"
__________________________________________________________________________________________________
Layer (type)                    Output Shape         Param #     Connected to                     
==================================================================================================
pillars/input (InputLayer)      [(1, 12000, 100, 7)] 0                                            
__________________________________________________________________________________________________
pillars/conv2d (Conv2D)         (1, 12000, 100, 64)  448         pillars/input[0][0]              
__________________________________________________________________________________________________
pillars/batchnorm (BatchNormali (1, 12000, 100, 64)  256         pillars/conv2d[0][0]             
__________________________________________________________________________________________________
pillars/relu (Activation)       (1, 12000, 100, 64)  0           pillars/batchnorm[0][0]          
__________________________________________________________________________________________________
pillars/maxpooling2d (MaxPoolin (1, 12000, 1, 64)    0           pillars/relu[0][0]               
__________________________________________________________________________________________________
pillars/indices (InputLayer)    [(1, 12000, 3)]      0                                            
__________________________________________________________________________________________________
pillars/reshape (Reshape)       (1, 12000, 64)       0           pillars/maxpooling2d[0][0]       
__________________________________________________________________________________________________
pillars/scatter_nd (Lambda)     (1, 504, 504, 64)    0           pillars/indices[0][0]            
                                                                 pillars/reshape[0][0]            
__________________________________________________________________________________________________
cnn/block1/conv2d0 (Conv2D)     (1, 252, 252, 64)    36928       pillars/scatter_nd[0][0]         
__________________________________________________________________________________________________
cnn/block1/bn0 (BatchNormalizat (1, 252, 252, 64)    256         cnn/block1/conv2d0[0][0]         
__________________________________________________________________________________________________
cnn/block1/conv2d1 (Conv2D)     (1, 252, 252, 64)    36928       cnn/block1/bn0[0][0]             
__________________________________________________________________________________________________
cnn/block1/bn1 (BatchNormalizat (1, 252, 252, 64)    256         cnn/block1/conv2d1[0][0]         
__________________________________________________________________________________________________
cnn/block1/conv2d2 (Conv2D)     (1, 252, 252, 64)    36928       cnn/block1/bn1[0][0]             
__________________________________________________________________________________________________
cnn/block1/bn2 (BatchNormalizat (1, 252, 252, 64)    256         cnn/block1/conv2d2[0][0]         
__________________________________________________________________________________________________
cnn/block1/conv2d3 (Conv2D)     (1, 252, 252, 64)    36928       cnn/block1/bn2[0][0]             
__________________________________________________________________________________________________
cnn/block1/bn3 (BatchNormalizat (1, 252, 252, 64)    256         cnn/block1/conv2d3[0][0]         
__________________________________________________________________________________________________
cnn/block2/conv2d0 (Conv2D)     (1, 126, 126, 128)   73856       cnn/block1/bn3[0][0]             
__________________________________________________________________________________________________
cnn/block2/bn0 (BatchNormalizat (1, 126, 126, 128)   512         cnn/block2/conv2d0[0][0]         
__________________________________________________________________________________________________
cnn/block2/conv2d1 (Conv2D)     (1, 126, 126, 128)   147584      cnn/block2/bn0[0][0]             
__________________________________________________________________________________________________
cnn/block2/bn1 (BatchNormalizat (1, 126, 126, 128)   512         cnn/block2/conv2d1[0][0]         
__________________________________________________________________________________________________
cnn/block2/conv2d2 (Conv2D)     (1, 126, 126, 128)   147584      cnn/block2/bn1[0][0]             
__________________________________________________________________________________________________
cnn/block2/bn2 (BatchNormalizat (1, 126, 126, 128)   512         cnn/block2/conv2d2[0][0]         
__________________________________________________________________________________________________
cnn/block2/conv2d3 (Conv2D)     (1, 126, 126, 128)   147584      cnn/block2/bn2[0][0]             
__________________________________________________________________________________________________
cnn/block2/bn3 (BatchNormalizat (1, 126, 126, 128)   512         cnn/block2/conv2d3[0][0]         
__________________________________________________________________________________________________
cnn/block2/conv2d4 (Conv2D)     (1, 126, 126, 128)   147584      cnn/block2/bn3[0][0]             
__________________________________________________________________________________________________
cnn/block2/bn4 (BatchNormalizat (1, 126, 126, 128)   512         cnn/block2/conv2d4[0][0]         
__________________________________________________________________________________________________
cnn/block2/conv2d5 (Conv2D)     (1, 126, 126, 128)   147584      cnn/block2/bn4[0][0]             
__________________________________________________________________________________________________
cnn/block2/bn5 (BatchNormalizat (1, 126, 126, 128)   512         cnn/block2/conv2d5[0][0]         
__________________________________________________________________________________________________
cnn/block3/conv2d0 (Conv2D)     (1, 63, 63, 128)     147584      cnn/block2/bn5[0][0]             
__________________________________________________________________________________________________
cnn/block3/bn0 (BatchNormalizat (1, 63, 63, 128)     512         cnn/block3/conv2d0[0][0]         
__________________________________________________________________________________________________
cnn/block3/conv2d1 (Conv2D)     (1, 63, 63, 128)     147584      cnn/block3/bn0[0][0]             
__________________________________________________________________________________________________
cnn/block3/bn1 (BatchNormalizat (1, 63, 63, 128)     512         cnn/block3/conv2d1[0][0]         
__________________________________________________________________________________________________
cnn/block3/conv2d2 (Conv2D)     (1, 63, 63, 128)     147584      cnn/block3/bn1[0][0]             
__________________________________________________________________________________________________
cnn/block3/bn2 (BatchNormalizat (1, 63, 63, 128)     512         cnn/block3/conv2d2[0][0]         
__________________________________________________________________________________________________
cnn/block3/conv2d3 (Conv2D)     (1, 63, 63, 128)     147584      cnn/block3/bn2[0][0]             
__________________________________________________________________________________________________
cnn/block3/bn3 (BatchNormalizat (1, 63, 63, 128)     512         cnn/block3/conv2d3[0][0]         
__________________________________________________________________________________________________
cnn/block3/conv2d4 (Conv2D)     (1, 63, 63, 128)     147584      cnn/block3/bn3[0][0]             
__________________________________________________________________________________________________
cnn/block3/bn4 (BatchNormalizat (1, 63, 63, 128)     512         cnn/block3/conv2d4[0][0]         
__________________________________________________________________________________________________
cnn/block3/conv2d5 (Conv2D)     (1, 63, 63, 128)     147584      cnn/block3/bn4[0][0]             
__________________________________________________________________________________________________
cnn/block3/bn5 (BatchNormalizat (1, 63, 63, 128)     512         cnn/block3/conv2d5[0][0]         WARNING:tensorflow:From /usr/local/lib/python3.5/dist-packages/tensorflow/python/ops/array_ops.py:1354: add_dispatch_support.<locals>.wrapper (from tensorflow.python.ops.array_ops) is deprecated and will be removed in a future version.
Instructions for updating:
Use tf.where in 2.0, which has the same broadcast rule as np.where
WARNING:tensorflow:From /home/chirag1goel_gmail_com/PointPillars/loss.py:42: The name tf.losses.huber_loss is deprecated. Please use tf.compat.v1.losses.huber_loss instead.
…
2019-11-28 17:33:40.795107: I tensorflow/core/profiler/lib/profiler_session.cc:174] Profiler session started.
2019-11-28 17:33:40.881178: I tensorflow/stream_executor/platform/default/dso_loader.cc:53] Could not dlopen library 'libcupti.so.10.0'; dlerror: libcupti.so.10.0: cannot open shared object file: No such file or directory
2019-11-28 17:33:40.881242: W tensorflow/core/profiler/lib/profiler_session.cc:182] Encountered error while starting profiler: Unavailable: CUPTI error: CUPTI could not be loaded or symbol could not be found.

__________________________________________________________________________________________________
cnn/up1/conv2dt (Conv2DTranspos (1, 252, 252, 128)   73856       cnn/block1/bn3[0][0]             
__________________________________________________________________________________________________
cnn/up2/conv2dt (Conv2DTranspos (1, 252, 252, 128)   147584      cnn/block2/bn5[0][0]             
__________________________________________________________________________________________________
cnn/up3/conv2dt (Conv2DTranspos (1, 252, 252, 128)   147584      cnn/block3/bn5[0][0]             
__________________________________________________________________________________________________
cnn/up1/bn (BatchNormalization) (1, 252, 252, 128)   512         cnn/up1/conv2dt[0][0]            
__________________________________________________________________________________________________
cnn/up2/bn (BatchNormalization) (1, 252, 252, 128)   512         cnn/up2/conv2dt[0][0]            
__________________________________________________________________________________________________
cnn/up3/bn (BatchNormalization) (1, 252, 252, 128)   512         cnn/up3/conv2dt[0][0]            
__________________________________________________________________________________________________
cnn/concatenate (Concatenate)   (1, 252, 252, 384)   0           cnn/up1/bn[0][0]                 
                                                                 cnn/up2/bn[0][0]                 
                                                                 cnn/up3/bn[0][0]                 
__________________________________________________________________________________________________
loc/conv2d (Conv2D)             (1, 252, 252, 12)    4620        cnn/concatenate[0][0]            
__________________________________________________________________________________________________
size/conv2d (Conv2D)            (1, 252, 252, 12)    4620        cnn/concatenate[0][0]            
__________________________________________________________________________________________________
clf/conv2d (Conv2D)             (1, 252, 252, 16)    6160        cnn/concatenate[0][0]            
__________________________________________________________________________________________________
occupancy/conv2d (Conv2D)       (1, 252, 252, 4)     1540        cnn/concatenate[0][0]            
__________________________________________________________________________________________________
loc/reshape (Reshape)           (1, 252, 252, 4, 3)  0           loc/conv2d[0][0]                 
__________________________________________________________________________________________________
size/reshape (Reshape)          (1, 252, 252, 4, 3)  0           size/conv2d[0][0]                
__________________________________________________________________________________________________
angle/conv2d (Conv2D)           (1, 252, 252, 4)     1540        cnn/concatenate[0][0]            
__________________________________________________________________________________________________
heading/conv2d (Conv2D)         (1, 252, 252, 4)     1540        cnn/concatenate[0][0]            
__________________________________________________________________________________________________
clf/reshape (Reshape)           (1, 252, 252, 4, 4)  0           clf/conv2d[0][0]                 
==================================================================================================
Total params: 2,243,444
Trainable params: 2,238,964
Non-trainable params: 4,480
__________________________________________________________________________________________________
None
Batch ID : 8874
File ID : 44
Start index : 162
/mnt/disks/waymo/training/segment-4781039348168995891_280_000_300_000_with_camera_labels.tfrecord
…
